calculate/results/best_overall_model.pth (torch, 48162 bytes, 10 tensors)

netX.layer.weight f4 [1, 3]
0.58913326 0.2209776 0.94734776
00000000: 70d1 163f f447 623e 6285 723f

combination_net.0.weight f4 [64, 4]
0.38955268 0.453668 -0.3003349 0.35328168 0.16061941 0.49312404 0.32613882 -0.2818026
-0.34905878 0.504041 -0.37253544 -0.097542696 0.31001323 0.13703185 0.106725454 -0.435651
0.34050834 0.27342287 -0.18393083 0.47928488 0.12923445 -0.46132964 0.44860694 0.43471998
0.37665418 -0.20991357 0.012130392 0.4323419 0.0051375628 -0.043232918 -0.013792157 -0.28716594
0.49879038 -0.04445976 0.48846924 -0.35075754 0.23787487 0.37667817 -0.46679598 -0.27816522
-0.4055969 0.33568317 0.27081957 0.08911793 0.42944804 -0.5102081 -0.28802538 0.17430279
0.20965359 -0.0918363 0.05122045 0.48823515 -0.24449968 -0.37900108 -0.04794407 0.13413936
0.4930299 -0.049916327 0.30376452 -0.06571388 -0.30311707 -0.34833786 0.157016 0.19383118
0.30266553 -0.46128333 0.24748525 0.39158836 0.23959571 -0.22376662 -0.15984166 -0.066568375
0.09561479 -0.00954771 -0.31708902 -0.19887477 0.53511596 0.50269306 -0.028354952 0.37697423
0.30462348 -0.29230034 -0.1582709 -0.35242707 -0.19922324 -0.0015924417 0.29893178 0.10098355
0.2379548 -0.40566903 0.20134026 -0.47424674 0.3557407 0.17483014 0.14001575 -0.32586983
-0.7694717 -0.4440122 0.5189795 -0.03174457 -0.3763756 0.01302945 0.08072604 0.37880898
-0.34012443 -0.3259069 -0.3131399 0.050900403 0.32128584 -0.11287231 0.2013807 0.045344085
-0.019845434 -0.055888467 0.13571428 0.16582762 0.40301317 0.34487447 0.4971826 0.26044488
0.34244132 -0.46144038 -0.27192676 0.47348344 -0.15414195 -0.35726732 -0.03556898 0.11791726
-0.19874014 0.31703958 -0.5415066 -0.030003715 -0.13707262 -0.037549138 -0.18529147 -0.32379454
0.3636996 -0.040394984 0.1727724 0.09531582 0.15997876 0.40889767 -0.15555084 0.15553407
0.034698308 0.45720237 0.028785467 -0.14503616 -0.22163409 -0.13371587 0.18795455 -0.24715269
0.31708053 0.44072446 -0.44582182 0.21423422 0.20616458 -1.6121796 0.6865131 -0.2642198
-0.51976776 0.24348119 0.28470007 0.21286215 -0.008333053 -0.41275507 0.3838625 0.22455782
0.20618874 0.5501589 0.42222813 -0.23053518 0.5086206 -0.4262357 0.4490867 0.10343835
-0.21250466 -0.08688577 0.28168067 0.4635415 0.3336667 0.25862998 -0.14364277 0.24351336
-0.56179 0.41197544 0.11155383 -0.24761304 0.24066795 0.14785428 0.38350707 -0.089231886
0.15963948 -0.21769093 0.3609789 0.42451108 0.47344917 0.38899785 -0.25305808 0.47252774
0.49401674 0.09298097 0.36125186 -0.27261028 0.13241953 0.0572123 -0.2608006 0.39397016
0.113125265 0.02518481 -0.3657785 -0.42240918 -0.1791568 0.51015776 -0.586935 0.14056428
0.022349736 -0.49858055 0.09182465 0.3776178 0.1053288 -0.0688287 -0.40573925 -0.41136277
-0.15021726 0.2465399 0.16887696 0.42669144 0.04733706 0.010560026 -0.26335037 0.4898311
-0.4357376 0.27889556 -0.24207783 -0.4287396 -0.29885298 -0.13982308 -0.10904789 -0.43955386
-0.39270234 0.079387344 -0.16917881 0.4405749 0.49277115 0.13313602 0.37914935 0.054508973
-0.30405593 -0.35434556 -0.14633363 0.14098334 -0.16349709 -0.3715086 0.03245777 -0.021592736
00000000: 7373 c73e 2c47 e83e 7fc5 99be 56e1 b43e
00000010: 6a79 243e c17a fc3e abfb a63e 6e48 90be
00000020: d5b7 b2be d508 013f f7bc bebe 77c4 c7bd
00000030: 0eba 9e3e 1452 0c3e e092 da3d a60d dfbe
00000040: 1c57 ae3e 15fe 8b3e 5d58 3cbe d464 f53e
00000050: 0956 043e 6633 ecbe cfaf e53e 9e93 de3e
00000060: d1d8 c03e 95f3 56be 8dbe 463c eb5b dd3e
00000070: 0059 a83b 0015 31bd 80f8 61bc 6a07 93be
00000080: 7461 ff3e 701b 36bd a418 fa3e 7e96 b3be
00000090: 7895 733e f6db c03e e2ff eebe ac6b 8ebe
000000a0: 66aa cfbe aade ab3e dda8 8a3e 7683 b63d
000000b0: 9de0 db3e ff9c 02bf 1078 93be 6e7c 323e
000000c0: 6eaf 563e ac14 bcbd 89cc 513d f5f9 f93e
000000d0: 205e 7abe 6e0c c2be 0061 44bd d45b 093e
000000e0: 6a6e fc3e 1075 4cbd 0687 9b3e 0095 86bd
000000f0: 2932 9bbe 5759 b2be cdc8 203e ae7b 463e
00000100: faf6 9a3e 542d ecbe c66c 7d3e 457e c83e
00000110: 9458 753e 1423 65be 88ad 23be 0055 88bd
00000120: b0d1 c33d 006e 1cbc 7e59 a2be d4a5 4bbe
00000130: 5cfd 083f 7eb0 003f a548 e8bc c402 c13e
00000140: 9cf7 9b3e 64a8 95be c411 22be 5271 b4be
00000150: 2d01 4cbe 7ab9 d0ba 960d 993e 77d0 ce3d
00000160: 6caa 733e dab3 cfbe 242c 4e3e 78d0 f2be
00000170: a523 b63e ac06 333e 4a60 0f3e 69d8 a6be
00000180: 19fc 44bf 9155 e3be d7db 043f 9806 02bd
00000190: 4db4 c0be 7979 553c b253 a53d 40f3 c13e
000001a0: ca24 aebe 45dd a6be df53 a0be f17c 503d
000001b0: 947f a43e 9929 e7bd be36 4e3e b8ba 393d
000001c0: e492 a2bc 4eeb 64bd aff8 0a3e b7ce 293e
000001d0: be57 ce3e 6393 b03e b88e fe3e 0859 853e
000001e0: 7854 af3e ea41 ecbe fc39 8bbe 6c6c f23e
000001f0: 63d7 1dbe beeb b6be c7b0 11bd 9b7e f13d
00000200: 8982 4bbe 0353 a23e 2da0 0abf 5aca f5bc
00000210: c45c 0cbe 20cd 19bd 0cbd 3dbe 66c8 a5be
00000220: d536 ba3e 3675 25bd 3feb 303e f134 c33d
00000230: 79d1 233e 095b d13e b848 1fbe 5344 1f3e
00000240: d01f 0e3d 6e16 ea3e 80cf eb3c 5c84 14be
00000250: 0cf4 62be d0ec 08be 2877 403e 9815 7dbe
00000260: 6158 a23e a3a6 e13e c242 e4be 3760 5b3e
00000270: cf1c 533e e75b cebf 53bf 2f3f d147 87be
00000280: 800f 05bf 2253 793e 35c4 913e 89f8 593e
00000290: 5c87 08bc a254 d3be a089 c43e 7cf2 653e
000002a0: 2423 533e 37d7 0c3f 492e d83e 6a11 6cbe
000002b0: f634 023f 913b dabe b1ee e53e 7cd7 d33d
000002c0: d29a 59be 2bf1 b1bd 7338 903e 5055 ed3e
000002d0: 5dd6 aa3e 266b 843e 1717 13be 915b 793e
000002e0: 78d1 0fbf 72ee d23e 5676 e43d 468e 7dbe
000002f0: a971 763e 1d67 173e 0a5b c43e 35bf b6bd
00000300: 8878 233e 5fea 5ebe 3ad2 b83e 8459 d93e
00000310: ee67 f23e ba2a c73e d490 81be 28ef f13e
00000320: c3ef fc3e cf6c be3d 01f6 b83e 9393 8bbe
00000330: fc98 073e 7257 6a3d a887 85be 75b6 c93e
00000340: 38ae e73d 6050 ce3c 5247 bbbe 0446 d8be
00000350: e174 37be b399 023f 5f41 16bf 15f0 0f3e
00000360: cb16 b73c f345 ffbe 900e bc3d 1f57 c13e
00000370: a0b6 d73d 10f6 8cbd 0ebd cfbe 249e d2be
00000380: 8ed2 19be f574 7c3e 15ee 2c3e 4d77 da3e
00000390: 81e4 413d f603 2d3c dcd5 86be 24cb fa3e
000003a0: 0019 dfbe 66cb 8e3e 40e3 77be c283 dbbe
000003b0: 4203 99be c82d 0fbe 8054 dfbd 340d e1be
000003c0: 4810 c9be d595 a23d 363d 2dbe 0993 e13e
000003d0: 804c fc3e cf54 083e dd1f c23e cd44 5f3d
000003e0: 38ad 9bbe c86c b5be 7cd8 15be f05d 103e
000003f0: c86b 27be 6036 bebe 70f2 043d 40e3 b0bc

combination_net.0.bias f4 [64]
0.2606344 0.55911535 0.5200658 -0.28804696 0.2912587 0.24141745 -0.22177687 0.30123073
-0.111501336 -0.26850313 -0.042013906 -0.15457103 0.4897432 -0.4565701 -0.44649076 0.12752438
-0.29711568 -0.34628505 -0.04767573 0.452583 -0.03213221 0.23095553 -0.1649487 0.35252795
0.15795778 -0.4273392 0.3399878 0.036739055 0.08772414 0.21251203 -0.0093842875 0.26436234
-0.27929744 -0.45742148 -0.058615353 0.51468414 -0.46146417 -0.037123203 0.45352134 0.26779836
-0.039321627 0.31652215 0.38256487 0.25342318 -0.27622968 0.47885084 0.42677748 0.0844961
-0.31667835 -0.12578316 0.62148595 -0.47267264 0.026060462 -0.43727022 -0.031005573 -0.09478831
0.08795605 0.15827426 -0.37131947 -0.1106745 0.06450492 0.46049973 -0.47975177 -0.47546303
00000000: df71 853e 2f22 0f3f 0823 053f e47a 93be
00000010: dc1f 953e 2336 773e 7a19 63be ea3a 9a3e
00000020: d05a e4bd 3e79 89be c616 2cbd de47 1ebe
00000030: 9fbf fa3e 8ec3 e9be 709a e4be c095 023e
00000040: 8c1f 98be 464c b1be a047 43bd f5b8 e73e
00000050: 109d 03bd 9b7f 6c3e 50e8 28be 8b7e b43e
00000060: afbf 213e 34cc dabe e212 ae3e b17b 163d
00000070: b7a8 b33d c19c 593e 8ec0 19bc 805a 873e
00000080: 1300 8fbe 2633 eabe a716 70bd 57c2 033f
00000090: 0845 ecbe 800e 18bd f333 e83e de1c 893e
000000a0: b70f 21bd 310f a23e 8bdf c33e afc0 813e
000000b0: fa6d 8dbe f02b f53e 9482 da3e 4b0c ad3d
000000c0: aa23 a2be 4dcd 00be b419 1f3f 2602 f2be
000000d0: c07c d53c e2e1 dfbe 66ff fdbc 6020 c2bd
000000e0: 4d22 b43d a612 223e 961d bebe 50a9 e2bd
000000f0: 281b 843d 9fc6 eb3e 06a2 f5be e46f f3be

combination_net.2.weight f4 [64, 64]
-0.04312299 0.177526 0.048941508 0.053575456 -0.0025920745 0.058777984 -0.060672723 0.060473993
-0.09795281 0.051688477 -0.084339604 -0.027246779 0.04380538 -0.019462183 0.09958388 -0.11817046
-0.0872899 0.004221678 -0.101870686 0.01332755 0.09442392 -0.08364244 -0.10896078 0.17396317
-0.22115402 -0.07384414 -0.044738807 0.081909426 0.058717065 0.070798546 -0.037321642 0.028966796
-0.08153305 0.003948733 -0.015325703 0.09597006 -0.08102885 -0.03407921 0.12869282 0.32014588
0.11363763 -0.016705748 0.29495984 0.15763794 0.07573345 -0.023871299 0.1616795 0.07532185
-0.032394674 -0.031784806 0.14386216 -0.1476163 -0.10677114 -0.059321444 0.109140344 -0.03218107
-0.035077654 0.115964785 0.07036428 -0.047048405 -0.09612466 0.011631929 0.117988095 -0.016933098
0.09096946 -0.050452217 0.082652554 -0.05349104 0.0032476187 0.06488834 -0.040985182 1.9416213e-05
0.09851757 0.012063488 -0.029726908 -0.060966134 -0.076852426 -0.061406627 -0.100251585 -0.12239914
-0.02813065 0.07341714 -0.001085341 0.07282725 -0.10746677 -0.050848722 0.08406556 -0.06114842
-0.10891123 0.09312759 0.053040504 0.04755719 -0.028556943 -0.11706762 0.011033937 -0.028165683
-0.045085922 0.09923139 -0.088939235 0.06980522 0.010469526 0.039935544 -0.029257938 0.11534029
0.03882529 0.020924151 -0.082804605 -0.041532353 -0.06484537 0.12325527 -0.09707853 -0.011013299
-0.080307975 -0.046466157 0.08073081 -0.0069898963 0.039829493 -0.048964366 -0.009536028 0.06464888
-0.11093442 -0.012888283 0.060588315 0.09615801 -0.01883182 -0.10567385 -0.07490116 0.08174838
0.106905945 0.28143504 0.043428823 -0.116720095 0.01635822 0.039777257 0.12941691 0.05049984
0.11956188 -0.012501299 -0.11248928 0.09857266 0.06599401 -0.09345898 0.08945578 -0.06384057
0.047330543 -0.120096624 0.05465752 -0.0030625018 -0.023665994 0.06772072 -0.06985673 0.109347455
-0.09457259 -0.1336649 0.10111656 -0.00015960753 -0.09895693 -0.07627883 -0.108387865 -0.0002599215
0.075601384 0.09862174 0.03785293 -0.056659132 -0.0912476 -0.044930175 0.08690685 0.21882555
0.11873077 0.004874007 0.1828456 -0.032162003 -0.0759465 0.11126866 0.0025834744 -0.019096935
0.115745656 -0.09788621 0.28617823 -0.07139562 0.036000535 -0.100194655 -0.09097356 0.077078074
0.0687767 -0.077427 0.10729018 -0.106795356 0.089433625 0.065178916 -0.0074697137 0.06531884
-0.050054915 0.06860943 -0.042033322 0.110495955 -0.03714129 0.10599809 -0.009008821 0.05851963
0.05547476 0.000663802 -0.07186637 0.10068146 0.099506855 0.052592203 0.096455574 -0.10756063
0.06041538 0.031539693 -0.06355731 -0.04906406 -0.09033948 0.088156015 -0.014296681 0.101852775
-0.0663168 -0.07115022 0.05171863 -0.05784199 -0.13794626 0.10730547 0.086274445 -0.006280051
0.10104157 -0.07147747 -0.084116235 0.08609426 0.08761726 -0.12437445 -0.13397413 0.048792083
-0.10568864 -0.07625936 -0.09244779 0.06415189 0.06010447 -0.07610027 -0.011538234 0.036929477
0.03303566 -0.11449284 -0.13417846 -0.026667902 0.05492042 -0.10163997 -0.041057624 0.08980735
-0.053234674 0.032760143 0.030735835 0.034071684 -0.117113374 -0.13397656 -0.09694293 -0.05754581
00000000: bba1 30bd 60c9 353e e476 483d f071 5b3d
00000010: cbdf 29bb 2fc1 703d f683 78bd 94b3 773d
00000020: 7c9b c8bd 4cb7 533d 3eba acbd a334 dfbc
00000030: 456d 333d 286f 9fbc a2f2 cb3d 5b03 f2bd
00000040: 0cc5 b2bd 0056 8a3b 94a1 d0bd cc5b 5a3c
00000050: 5461 c13d ba4c abbd d426 dfbd 6723 323e
00000060: 3376 62be 993b 97bd 0a40 37bd 21c0 a73d
00000070: 4e81 703d d4fe 903d 94de 18bd c64b ed3c
00000080: cdfa a6bd 6064 813b a818 7bbc f38b c43d
00000090: 74f2 a5bd a496 0bbd 0dc8 033e 29ea a33e
000000a0: d9ba e83d 7eda 88bc fa04 973e d76b 213e
000000b0: 241a 9b3d be8d c3bc 508f 253e 5842 9a3d
000000c0: 47b0 04bd c930 02bd 9a50 133e ba28 17be
000000d0: d4aa dabd 0bfb 72bd f984 df3d 4cd0 03bd
000000e0: 96ad 0fbd f27e ed3d 261b 903d d4b5 40bd
000000f0: 01dd c4bd d993 3e3c bea3 f13d 48b7 8abc
00000100: 324e ba3d fca6 4ebd be45 a93d 6c19 5bbd
00000110: 00d6 543b 2ee4 843d 14e0 27bd 00e0 a237
00000120: 94c3 c93d f0a5 453c d885 f3bc a0b7 79bd
00000130: ce64 9dbd 8485 7bbd b450 cdbd 66ac fabd
00000140: 4072 e6bc ba5b 963d 0042 8eba 7426 953d
00000150: 8a17 dcbd c046 50bd 902a ac3d c476 7abd
00000160: da0c dfbd aeb9 be3d 0041 593d 54cb 423d
00000170: 40f0 e9bc 26c1 efbd b0c7 343c b8bb e6bc
00000180: 04ac 38bd d439 cb3d c625 b6bd 0af6 8e3d
00000190: 6088 2b3c 7493 233d 58ae efbc 8837 ec3d
000001a0: 4407 1f3d 2069 ab3c 7695 a9bd d41d 2abd
000001b0: a6cd 84bd 426d fc3d 1cd1 c6bd 2071 34bc
000001c0: 8278 a4bd 4c53 3ebd 3256 a53d 800b e5bb
000001d0: 4024 233d dc8e 48bd 003d 1cbc a266 843d
000001e0: 9631 e3bd 6029 53bc 742b 783d 7eee c43d
000001f0: 3045 9abc 886b d8bd c865 99bd b26b a73d
00000200: 81f1 da3d 4118 903e 6ce2 313d f20a efbd
00000210: ac01 863c 7aed 223d de85 043e ecd8 4e3d
00000220: dcdc f43d 40d2 4cbc c860 e6bd 76e0 c93d
00000230: de27 873d 6c67 bfbd 9834 b73d d8be 82bd
00000240: acdd 413d 38f5 f5bd 90e0 5f3d 41b4 48bb
00000250: 30df c1bc 29b1 8a3d 0c11 8fbd 8ff1 df3d
00000260: 46af c1bd 74df 08be 3316 cf3d 525c 27b9
00000270: eea9 cabd 1338 9cbd 75fa ddbd 1346 88b9
00000280: e6d4 9a3d 32fa c93d ad0b 1b3d 6813 68bd
00000290: 06e0 babd b408 38bd 38fc b13d ce13 603e
000002a0: 1e29 f33d 22b6 9f3b e13b 3b3e 4ebc 03bd
000002b0: d789 9bbd d3e0 e33d 824f 293b 2d71 9cbc
000002c0: 0f0c ed3d 9178 c8bd f485 923e de37 92bd
000002d0: 4c75 133d db32 cdbd 5950 babd 1cdb 9d3d
000002e0: ccda 8c3d 0c92 9ebd f4ba db3d 86b7 dabd
000002f0: fa28 b73d 867c 853d 80c4 f4bb e2c5 853d
00000300: 6206 4dbd 1a83 8c3d 222b 2cbd b44b e23d
00000310: 7721 18bd 8715 d93d bc99 13bc 48b2 6f3d
00000320: 8039 633d 0003 2e3a ad2e 93bd 1532 ce3d
00000330: 40ca cb3d ec6a 573d 808a c53d bf48 dcbd
00000340: 1e76 773d c42f 013d 562a 82bd 65f7 48bd
00000350: e803 b9bd 248b b43d a03c 6abc 3098 d03d
00000360: 1ad1 87bd 35b7 91bd ead6 533d b9eb 6cbd
00000370: c941 0dbe f8c2 db3d a8b0 b03d e3c8 cdbb
00000380: e2ee ce3d c862 92bd 2245 acbd 3052 b03d
00000390: ae70 b33d 08b8 febd 8430 09be 35da 473d
000003a0: 4973 d8bd de2d 9cbd 4455 bdbd 1162 833d
000003b0: 1b30 763d 75da 9bbd dc0a 3dbc 5d43 173d
000003c0: 6650 073d 397b eabd 1466 09be a576 dabc
000003d0: 3cf4 603d 9e28 d0bd 0a2c 28bd eaec b73d
000003e0: 9a0c 5abd 802f 063d b8c9 fb3c c08e 0b3d
000003f0: 23d9 efbd 2731 09be 048a c6bd 28b5 6bbd

combination_net.2.bias f4 [64]
0.11909281 0.008801952 0.0042557498 -0.038082115 -0.00409171 -0.03477963 -0.020947013 -0.07662039
0.10686886 0.029025242 0.0016148076 -0.11962359 0.10509448 -0.008164346 -0.04598855 -0.05152252
-0.11799653 -0.1122296 -0.07725226 0.03954153 0.1379923 0.091244236 0.13456912 0.10040801
0.059519716 0.18738914 0.042253062 0.11699831 0.15069583 -0.06587078 -0.09969646 0.03270495
0.0046132863 -0.0014858842 0.055910036 0.09156998 -0.1271796 -0.054267056 0.0369929 0.092733614
-0.024461249 -0.03912208 0.14021981 -0.014521971 0.06886148 0.049201004 -0.012422948 -0.11152415
-0.08313117 -0.0018349439 -0.03371546 -0.026808307 0.022461789 -0.046935037 -0.12057021 0.038813755
-0.017936587 -0.11219579 -0.1064011 0.09418737 0.12503003 -0.049246266 -0.020394221 -0.072772086
00000000: eee6 f33d 1036 103c d173 8b3b fefb 1bbd
00000010: c013 86bb 1675 0ebd 1299 abbc 27eb 9cbd
00000020: 10de da3d 58c6 ed3c f4a7 d33a 36fd f4bd
00000030: c63b d73d c0c3 05bc 7d5e 3cbd 4709 53bd
00000040: 2aa8 f1bd a2d8 e5bd 6f36 9ebd 4df6 213d
00000050: da4d 0d3e 42de ba3d 7dcc 093e b7a2 cd3d
00000060: f2ca 733d f0e2 3f3e 8c11 2d3d cf9c ef3d
00000070: 0250 1a3e 42e7 86bd a82d ccbd a0f5 053d
00000080: 0d2b 973b 00c2 c2ba ec01 653d 0b89 bb3d
00000090: 5e3b 02be 2247 5ebd de85 173d 1feb bd3d
000000a0: f562 c8bc 793e 20bd c895 0f3e 90ed 6dbc
000000b0: 3f07 8d3d fe86 493d 9f89 4bbc c666 e4bd
000000c0: ad40 aabd 8082 f0ba 3919 0abd 189d dbbc
000000d0: c901 b83c f43e 40bd 84ed f6bd 2cfb 1e3d
000000e0: c0ef 92bc e8c6 e5bd d2e8 d9bd 4fe5 c03d
000000f0: df07 003e 74b6 49bd c811 a7bc 8809 95bd

combination_net.4.weight f4 [64, 64]
-0.00063519547 -0.057802796 0.0034022839 -0.0339345 0.08391762 0.05594506 -0.09907028 -0.02629306
0.08336819 -0.061079707 0.13335863 -0.047219127 0.10043672 -0.086309865 -0.003907873 0.058952853
-0.09358913 0.050785 0.09645066 0.028018858 0.12750883 -0.054695085 0.07101027 0.13004878
-0.11086544 0.10199929 -0.0043658763 0.0018123433 -0.017961092 0.12518422 -0.067717165 -0.0013282299
0.042256318 -0.10002074 0.0500876 0.12394271 -0.0873485 -0.076193154 -0.056492127 -0.017577553
-0.009825165 -0.0028554185 0.04372398 0.014169231 0.07364739 -0.039535787 0.019611932 0.0045004636
-0.09214326 0.07379833 -0.021702873 -0.04957576 -0.030105254 -0.03135933 -0.094643146 -0.12351219
-0.1224128 -0.046777755 0.07897398 0.06995418 0.22329593 -0.063367136 -0.022804335 -0.08318693
0.020648967 0.002853185 -0.0130022615 0.063326724 -0.021924347 -0.005137503 0.04834207 -0.056160543
0.09626366 0.13422795 0.1313961 -0.023439214 -0.05425298 0.07317282 0.059816614 0.11367973
0.03851463 -0.0056962236 0.03520447 0.00026659018 0.05050474 0.014773861 0.057651352 -0.068814464
-0.11563065 0.0937736 0.0064976513 -0.071844146 -0.050675575 -0.08698017 -0.052415147 0.060820922
-0.03424239 -0.12245658 0.003741473 -0.006045144 0.0080465935 0.07339867 -0.10283332 0.14798056
0.07178612 0.136359 -0.0028561698 -0.031178638 0.0061937766 -0.1111962 0.017918738 -0.041313753
-0.054241244 0.09285681 -0.027218044 -0.07552037 0.10435441 0.07428025 -0.11900951 0.058618084
0.08161567 0.11888842 0.11794977 0.12334455 0.22753562 -0.016891174 0.0015742183 0.05659099
-0.008867028 0.035271436 -0.040437043 0.103269316 0.069490284 -0.06994937 0.03811254 -0.050522693
0.06781205 0.14124161 0.13506597 0.10435395 0.031884246 -0.11314228 0.046909586 -0.11163149
0.1226068 0.09589499 0.043131277 -0.09733127 -0.012604413 0.05498579 -0.016578166 -0.07445841
0.022595 0.15188408 0.07908307 0.120186485 -0.09050775 -0.07772482 -0.055996165 0.026820853
-0.09573041 0.07296829 0.120175034 -0.058680132 0.0016627369 -0.09742545 0.0021356964 0.10988022
0.110957384 0.08041214 0.101949245 0.029866278 0.22907488 0.050317697 0.12682647 0.048586473
-0.020499706 -0.09187396 -0.0037056515 0.0051612407 0.017560687 -0.022480652 0.011721224 -0.061066523
-0.032252267 0.007154733 0.06929363 -0.030110298 0.12565963 0.05553938 -0.010486752 0.07884537
-0.12140443 0.12366636 -0.085041285 0.076391816 -0.059231862 -0.042935845 0.079898104 0.018608076
-0.010988988 -0.05313042 -0.042796537 -0.009652078 0.00687046 0.08912471 -0.118157394 -0.0029815969
0.02991724 -0.057996403 -0.084450886 0.051761262 -0.11671604 -0.025379822 -0.041232448 0.060101617
0.0028700216 -0.03411071 0.049494922 -0.107360326 0.02995947 -0.05350078 -0.081698045 -0.08655444
-0.08864737 0.10714635 -0.03199409 0.09894316 0.089302935 0.020726547 0.032340217 -0.09440117
-0.12751931 -0.08561023 -0.10875745 -0.015750691 -0.07500307 0.0059815496 -0.11035457 -0.11204839
-0.004122017 -0.09536517 0.09913284 0.064275935 -0.031334568 0.10810447 -0.07144359 -0.07635625
0.061138943 -0.07395564 0.086776435 -0.018954359 0.015773842 0.06317996 -0.10919206 -0.08472994
00000000: 3f83 26ba a0c2 6cbd daf8 5e3b e7fe 0abd
00000010: 00dd ab3d a626 653d 5ce5 cabd 8b64 d7bc
00000020: f1bc aa3d b72e 7abd 2a8f 083e d868 41bd
00000030: c4b1 cd3d 3ac3 b0bd 9d0d 80bb 8c78 713d
00000040: a8ab bfbd ef03 503d ec87 c53d ce87 e53c
00000050: ad91 023e f407 60bd d56d 913d 822b 053e
00000060: 6b0d e3bd 01e5 d03d a00f 8fbb 268c ed3a
00000070: 2423 93bc 4b30 003e 4caf 8abd 0018 aeba
00000080: f614 2d3d acd7 ccbd a828 4d3d add5 fd3d
00000090: c5e3 b2bd 280b 9cbd 4a64 67bd cdfe 8fbc
000000a0: bbf9 20bc f921 3bbb eb17 333d 1026 683c
000000b0: 71d4 963d 47f0 21bd 34a9 a03c a078 933b
000000c0: 9bb5 bcbd 9423 973d 39ca b1bc f40f 4bbd
000000d0: 4b9f f6bc a472 00bd 44d4 c1bd f6f3 fcbd
000000e0: 90b3 fabd 089a 3fbd 1cbd a13d 2344 8f3d
000000f0: b0a7 643e a1c6 81bd 28d0 babc e95d aabd
00000100: 0628 a93c 80fc 3a3b 7007 55bc 71b1 813d
00000110: b09a b3bc 8058 a8bb 5602 463d 9908 66bd
00000120: e225 c53d 0d73 093e b38c 063e 9803 c0bc
00000130: 5f38 5ebd a2db 953d 4402 753d ebd0 e83d
00000140: 84c1 1d3d 63a7 babb 9032 103d 21c5 8b39
00000150: 0fde 4e3d 100e 723c d323 6c3d 99ee 8cbd
00000160: c3cf ecbd 600c c03d 40ea d43b 0623 93bd
00000170: 3191 4fbd a922 b2bd 44b1 56bd 5c1f 793d
00000180: c041 0cbd 84ca fabd 8033 753b 5816 c6bb
00000190: dcd5 033c 0b52 963d 479a d2bd 3788 173e
000001a0: 9a04 933d b2a1 0b3e 942e 3bbb 586a ffbc
000001b0: 2af5 ca3b d5ba e3bd 51ca 923c 9c38 29bd
000001c0: 112c 5ebd b62b be3d 60f8 debc 6caa 9abd
000001d0: c4b7 d53d 3e20 983d 42bb f3bd 8419 703d
000001e0: 1e26 a73d c67b f33d a68f f13d 119c fc3d
000001f0: 19ff 683e 5c5f 8abc 0056 ce3a f4cb 673d
00000200: 0347 11bc c878 103d 50a1 25bd dd7e d33d
00000210: ec50 8e3d 9e41 8fbd e51b 1c3d e2f0 4ebd
00000220: 0be1 8a3d a4a1 103e bc4e 0a3e 86b7 d53d
00000230: 0e99 023d 24b7 e7bd 4424 403d 0d9f e4bd
00000240: 4619 fb3d 9864 c43d 6caa 303d 9e55 c7bd
00000250: bd82 4ebc c838 613d efce 87bc a77d 98bd
00000260: 2619 b93c 8087 1b3e 4ef6 a13d 5524 f63d
00000270: 215c b9bd 312e 9fbd 3c5c 65bd 68b7 db3c
00000280: 4e0e c4bd 6670 953d 541e f63d 945a 70bd
00000290: 31f0 d93a ff86 c7bd 0af7 0b3b e108 e13d
000002a0: a03d e33d 1faf a43d c4ca d03d 20aa f43c
000002b0: 9b92 6a3e ee19 4e3d ccde 013e 9c02 473d
000002c0: 00ef a7bc 6a28 bcbd 84da 72bb a01f a93b
000002d0: 6edb 8f3c 5829 b8bc 600a 403c e420 7abd
000002e0: f41a 04bd 4072 ea3b d2e9 8d3d dfa9 f6bc
000002f0: ebac 003e 437d 633d a0d0 2bbc ae79 a13d
00000300: e3a2 f8bd ca44 fd3d 202a aebd 5073 9c3d
00000310: 1c9d 72bd 7fdd 2fbd 9ea1 a33d f76f 983c
00000320: 280b 34bc 499f 59bd 6c4b 2fbd c023 1ebc
00000330: 9921 e13b 0487 b63d 81fc f1bd e566 43bb
00000340: 0015 f53c a38d 6dbd 96f4 acbd 9e03 543d
00000350: d208 efbd 58e9 cfbc 5be3 28bd 1d2d 763d
00000360: f916 3c3b acb7 0bbd 30bb 4a3d bbdf dbbd
00000370: 906d f53c a223 5bbd 4e51 a7bd 7443 b1bd
00000380: c18c b5bd 8c6f db3d 3c0c 03bd b6a2 ca3d
00000390: 75e4 b63d b8ca a93c 2d77 043d 6755 c1bd
000003a0: 6c94 02be 6b54 afbd 3abc debd 9807 81bc
000003b0: 369b 99bd e000 c43b 9401 e2bd a079 e5bd
000003c0: fc11 87bb d04e c3bd 2906 cb3d 1aa3 833d
000003d0: ad58 00bd e065 dd3d 0451 92bd aa60 9cbd
000003e0: d46c 7a3d 0e76 97bd d8b7 b13d 2c46 9bbc
000003f0: 2538 813c 7f64 813d 16a0 dfbd e486 adbd

combination_net.4.bias f4 [64]
0.06581611 0.05462082 0.13424711 0.11381924 -0.01038327 0.02410382 0.08270654 -0.089671515
0.07607333 -0.07869667 -0.08800566 0.13954504 -0.116693944 -0.079725266 -0.06973766 0.096344516
-0.06907308 0.04352229 0.12507744 -0.09957926 -0.04796402 0.07079739 -0.005142721 -0.06106045
0.06256288 0.08599351 0.06852931 0.1290445 -0.031633943 0.0027974695 0.03779149 -0.04993396
-0.09617841 -0.027175829 -0.11885639 0.063685134 0.06861682 -0.06489128 0.049020328 0.0474333
0.01785662 -0.09454897 -0.06320851 0.15000947 0.085087255 0.024212405 0.06658666 -0.023989394
0.058132477 -0.021577135 0.15908185 -0.11457449 -0.10929997 0.119029775 0.028913159 -0.027542338
0.061945066 0.090737864 0.054399747 0.11261407 -0.03811518 0.065698124 0.10377568 0.081922404
00000000: 99ca 863d 15ba 5f3d 1378 093e 101a e93d
00000010: 971e 2abc 6075 c53c 0c62 a93d b3a5 b7bd
00000020: 56cc 9b3d b82b a1bd 503c b4bd e5e4 0e3e
00000030: 3cfd eebd 0047 a3bd 9ed2 8ebd 4650 c53d
00000040: 3076 8dbd 6e44 323d 4d14 003e 36f0 cbbd
00000050: ec75 44bd 39fe 903d 4584 a8bb 861a 7abd
00000060: f820 803d 5e1d b03d 1859 8c3d 3e24 043e
00000070: 9892 01bd c055 373b 40cb 1a3d 8d87 4cbd
00000080: 30f9 c4bd d89f debc fb6a f3bd 5a6d 823d
00000090: fa86 8c3d b8e5 84bd 8ac9 483d 6c49 423d
000000a0: 0c48 923c e4a2 c1bd 7773 81bd 159c 193e
000000b0: 3a42 ae3d 1859 c63c 965e 883d 6885 c4bc
000000c0: 521c 6e3d 88c2 b0bc 5ae6 223e 08a6 eabd
000000d0: aad8 dfbd e2c5 f33d 4adb ec3c 78a0 e1bc
000000e0: 1cba 7d3d c6d4 b93d 45d2 5e3d 35a2 e63d
000000f0: aa1e 1cbd bd8c 863d 5888 d43d efc6 a73d

combination_net.6.weight f4 [32, 64]
0.11503054 0.02925373 -0.0439521 0.0064388886 -0.10899168 -0.12046629 0.15049723 0.06925439
0.07917998 -0.0324312 -0.114314094 0.1040416 0.040905144 0.033681184 -0.11281614 0.12932326
-0.06860253 0.07908915 -0.07209567 5.929172e-05 0.06402625 -0.09303317 -0.015296457 0.09611571
-0.029915864 -0.036957562 -0.041903805 -0.053102143 -0.020105973 0.017851755 0.10447173 0.050236974
0.048753515 -0.025509626 0.10051684 0.016727824 0.022361232 -0.0663524 -0.088799454 -0.12171346
0.040915158 -0.042049572 0.13856542 0.027726432 0.04573022 0.13570778 0.04581788 -0.07744745
-0.110143654 -0.053203806 0.102153905 0.06863232 0.049722955 -0.015284523 -0.0022799312 -0.01325214
0.035842147 -0.08007965 0.1529435 0.07321691 -0.023110274 0.098112434 0.061510354 0.0921123
-0.045640346 0.09680991 0.0146266585 -0.0365105 -0.08943966 0.06587234 0.14856365 0.0060271216
0.13917567 0.0227786 -0.107580215 0.004702855 0.06574524 -0.07757303 -0.05176492 -0.02340419
-0.031107917 0.03734437 0.0047804946 -0.07739365 0.035775162 -0.041785274 0.034953307 -0.08673557
0.09645474 0.13631122 0.051820923 0.053633913 0.06751138 0.107796475 -0.017158002 -0.034164947
-0.05245626 0.018266037 0.17314711 0.10417673 -0.013471055 -0.03526327 -0.0010271631 -0.09479913
0.00022666543 -0.02884391 0.08383427 0.023376845 0.11752003 -0.06468102 -0.092556134 -0.05452422
0.052843902 -0.016131207 0.12176666 0.04780084 -0.0885504 -0.011365799 0.03724284 0.0880224
0.13454144 -0.028611105 -0.018646866 0.058600772 -0.037135508 -0.016965283 0.07384828 -0.071734555
0.047475226 0.10411185 0.08763475 -0.06811272 -0.028736219 0.005518511 0.059119135 -0.03436591
0.14741057 -0.021036282 0.04713811 0.09677355 -0.09985489 0.06401415 -0.10547218 -0.021983474
0.12022798 0.12696819 0.15492134 0.07762873 0.08058816 0.13276587 -0.06544039 -0.008677049
0.049975574 0.083642505 -0.051198136 0.038713586 -0.0058625787 -0.07563572 -0.051570043 0.034752954
-0.08886176 0.014042586 0.21880701 0.11904206 0.010352549 -0.10284084 -0.002306809 -0.029238105
-0.0008713908 0.09192923 -0.06212995 0.047188435 0.01158466 0.12115868 0.022088572 -0.0059848726
0.03902675 -0.1065699 0.13204162 0.123092145 -0.0027904212 0.13887738 0.025862893 0.057191007
0.09615507 -0.08934661 0.059261553 0.02665058 0.007143052 0.045771144 0.05447654 0.08855991
-0.027983319 0.089310005 -0.05005755 0.094419576 -0.10159542 0.0022066683 -0.015773743 0.08418676
-0.01658493 -0.08651455 0.06226486 0.1494443 0.016637923 0.072959274 -0.06750934 -0.019256353
0.08708835 -0.078064345 0.090420485 -0.052859113 0.029285911 -0.058746733 -0.10494317 -0.036098577
0.15228689 -0.04374236 0.14374053 0.15222886 -0.08132781 0.109403655 0.021401152 0.03613995
0.053729936 -0.0782046 0.22186421 0.07271156 -0.08973636 -0.04194273 0.053885084 0.009834886
0.121513925 -0.054461956 -0.0640592 -0.02305435 0.07056255 0.0014886815 0.04212825 -0.011202818
-0.09806643 -0.1189436 0.06562125 -0.09802456 -0.04863614 -0.023910671 0.12257356 -0.005957833
0.11256334 -0.07110765 -0.0080739735 0.048050925 -0.07267774 0.04270373 0.036045052 -0.021281758
00000000: 2295 eb3d 85a5 ef3c 1e07 34bd 50fd d23b
00000010: 0837 dfbd 08b7 f6bd f21b 1a3e 3fd5 8d3d
00000020: 1d29 a23d 94d6 04bd 821d eabd c313 d53d
00000030: 278c 273d 48f5 093d 260c e7bd 516d 043e
00000040: 7c7f 8cbd 7ef9 a13d e5a6 93bd 00b0 7838
00000050: 3220 833d 2d88 bebd fe9d 7abc 50d8 c43d
00000060: 1d12 f5bc d060 17bd 53a3 2bbd a281 59bd
00000070: 48b5 a4bc d83d 923c 46f5 d53d 49c5 4d3d
00000080: c4b1 473d 90f9 d0bc c6db cd3d ca08 893c
00000090: e72e b73c c4e3 87bd 7ddc b5bd e844 f9bd
000000a0: a796 273d 2c3c 2cbd 18e4 0d3e 8b22 e33c
000000b0: 9c4f 3b3d fbf6 0a3e 88ab 3b3d c59c 9ebd
000000c0: ff92 e1bd 3cec 59bd 1136 d13d 1a8f 8c3d
000000d0: 4caa 4b3d f06b 7abc e66a 15bb 811f 59bc
000000e0: 37cf 123d cd00 a4bd 399d 1c3e bff2 953d
000000f0: c251 bdbc 2cef c83d 48f2 7b3d 60a5 bc3d
00000100: 5ff1 3abd 4644 c63d a7a4 6f3c 098c 15bd
00000110: 242c b7bd 14e8 863d 1221 183e 297f c53b
00000120: 1184 0e3e 309a ba3c 0453 dcbd 681a 9a3b
00000130: 71a5 863d 9cde 9ebd 7407 54bd 25ba bfbc
00000140: 08d6 febc 69f6 183d b2a5 9c3b 9080 9ebd
00000150: fa88 123d 0927 2bbd 332b 0f3d 6ba2 b1bd
00000160: 108a c53d 2b95 0b3e 2d42 543d 3caf 5b3d
00000170: 6843 8a3d 66c4 dc3d f08e 8cbc 8bf0 0bbd
00000180: 60dc 56bd a8a2 953c 7a4d 313e 9c5a d53d
00000190: b3b5 5cbc 3870 10bd e0a1 86ba 0c26 c2bd
000001a0: 0aad 6d39 104a ecbc 4db1 ab3d cc80 bf3c
000001b0: 57ae f03d 7c77 84bd 128e bdbd ca54 5fbd
000001c0: d972 583d 9825 84bc cc60 f93d d0ca 433d
000001d0: ea59 b5bd 9e37 3abc f38b 183d 1745 b43d
000001e0: 3bc5 093e d661 eabc 50c1 98bc 5d07 703d
000001f0: 671b 18bd c7fa 8abc c43d 973d 91e9 92bd
00000200: 6275 423d 9838 d53d d979 b33d af7e 8bbd
00000210: 3868 ebbc a0d4 b43b e826 723d 45c3 0cbd
00000220: ccf2 163e 4854 acbc e413 413d 3631 c63d
00000230: b880 ccbd da19 833d cc01 d8bd b016 b4bc
00000240: 163a f63d f303 023e b3a3 1e3e d0fb 9e3d
00000250: 680b a53d c7f3 073e 9c05 86bd 2e2a 0ebc
00000260: 30b3 4c3d c34c ab3d 23b5 51bd 2392 1e3d
00000270: e01a c0bb e6e6 9abd 1c3b 53bd 1d59 0e3d
00000280: 28fd b5bd e012 663c f20e 603e 53cc f33d
00000290: bd9d 293c 389e d2bd d52d 17bb c084 efbc
000002a0: 0c6e 64ba 6445 bc3d f97b 7ebd a948 413d
000002b0: 96cd 3d3c 0b22 f83d 18f3 b43c c01c c4bb
000002c0: 83da 1f3d 5241 dabd eb35 073e bc17 fc3d
000002d0: 80df 36bb df35 0e3e 6bde d33c 1e41 6a3d
000002e0: f3ec c43d 5bfb b6bd 3ebc 723d 5152 da3c
000002f0: 4310 ea3b 867a 3b3d cb22 5f3d e65e b53d
00000300: 463d e5bc 2ae8 b63d 2509 4dbd 0d5f c13d
00000310: 4211 d0bd c09d 103b f037 81bc 1c6a ac3d
00000320: 1edd 87bc 8a2e b1bd 7009 7f3d ed07 193e
00000330: 414c 883c ac6b 953d 5642 8abd 80bf 9dbc
00000340: 605b b23d 33e0 9fbd 602e b93d cc82 58bd
00000350: 02e9 ef3c 6aa0 70bd 72ec d6bd 1adc 13bd
00000360: 18f1 1b3e 302b 33bd b830 133e e2e1 1b3e
00000370: 328f a6bd 060f e03d 7851 af3c 7c07 143d
00000380: ec13 5c3d bc29 a0bd 5f30 633e cce9 943d
00000390: b2c7 b7bd 24cc 2bbd 9bb6 5c3d 8022 213c
000003a0: 4bdc f83d 8013 5fbd 7831 83bd 7adc bcbc
000003b0: 1983 903d dd1f c33a ac8e 2c3d 068c 37bc
000003c0: 0dd7 c8bd b498 f3bd 6f64 863d 1ac1 c8bd
000003d0: b036 47bd 50e0 c3bc d907 fb3d ed39 c3bb
000003e0: 9c87 e63d e3a0 91bd b348 04bc 0cd1 443d
000003f0: 11d8 94bd 1bea 2e3d faa3 133d 1557 aebc

combination_net.6.bias f4 [32]
-0.04244664 0.0096946955 0.11789722 0.08410594 -0.093706325 0.04362506 0.084118776 0.14658539
-0.030744279 0.058273867 -0.03326971 0.09679968 0.051996384 -0.1137079 0.07262355 0.012104866
-0.123294726 0.0041270866 0.10248225 -0.08582306 0.00036492114 -0.021110203 -0.1312334 0.03751869
0.07978466 0.08143367 0.112236895 -0.07817925 -0.0032132664 0.0023265858 -0.122363284 -0.039725196
00000000: 87dc 2dbd 80d6 1e3c 1974 f13d bc3f ac3d
00000010: 1ae9 bfbd 31b0 323d 7746 ac3d 7b1a 163e
00000020: 6ddb fbbc 94b0 6e3d d245 08bd e93e c63d
00000030: 29fa 543d b0df e8bd a8bb 943d 7d53 463c
00000040: f281 fcbd 833c 873b 37e2 d13d 00c4 afbd
00000050: e352 bf39 4eef acbc 0c62 06be 33ad 193d
00000060: 2466 a33d b2c6 a63d 75dc e53d 711c a0bd
00000070: aa95 52bb a279 183b 9a99 fabd e3b6 22bd

combination_net.8.weight f4 [1, 32]
0.09684661 0.19205552 0.1943139 0.19371156 -0.05889234 -0.08012968 0.05118381 0.18860482
0.09972685 -0.14438792 0.14651513 -0.14732558 0.1480658 0.04804425 -0.14888272 0.04781018
-0.10810456 -0.13022734 -0.081213534 -0.12927827 -0.088022076 -0.078302145 -0.13026837 -0.10688617
-0.10803132 0.08111806 0.032920726 -0.0946318 0.103008844 -0.04037234 0.17303647 0.099437006
00000000: 8457 c63d 34aa 443e 39fa 463e 535c 463e
00000010: 1839 71bd 081b a4bd 1da6 513d 9f21 413e
00000020: 973d cc3d 6dda 13be 1008 163e 84dc 16be
00000030: 909e 173e 0cca 443d b674 18be 9bd4 433d
00000040: ec65 ddbd 515a 05be 4853 a6bd 8661 04be
00000050: eb44 b4bd e05c a0bd 1265 05be 23e7 dabd
00000060: 863f ddbd 3a21 a63d e2d7 063d 51ce c1bd
00000070: 4df6 d23d 775d 25bd 7930 313e a1a5 cb3d
